Printing net...
RFB(
  (conv1): Sequential(
    (0): Conv2d(3, 16, kernel_size=(3, 3), stride=(2, 2), padding=(1, 1), bias=False)
    (1): BatchNorm2d(16, eps=1e-05, momentum=0.1, affine=True, track_running_stats=True)
    (2): ReLU(inplace=True)
  )
  (conv2): Sequential(
    (0): Conv2d(16, 16, kernel_size=(3, 3), stride=(1, 1), padding=(1, 1), groups=16, bias=False)
    (1): BatchNorm2d(16, eps=1e-05, momentum=0.1, affine=True, track_running_stats=True)
    (2): ReLU(inplace=True)
    (3): Conv2d(16, 32, kernel_size=(1, 1), stride=(1, 1), bias=False)
    (4): BatchNorm2d(32, eps=1e-05, momentum=0.1, affine=True, track_running_stats=True)
    (5): ReLU(inplace=True)
  )
  (conv3): Sequential(
    (0): Conv2d(32, 32, kernel_size=(3, 3), stride=(2, 2), padding=(1, 1), groups=32, bias=False)
    (1): BatchNorm2d(32, eps=1e-05, momentum=0.1, affine=True, track_running_stats=True)
    (2): ReLU(inplace=True)
    (3): Conv2d(32, 32, kernel_size=(1, 1), stride=(1, 1), bias=False)
    (4): BatchNorm2d(32, eps=1e-05, momentum=0.1, affine=True, track_running_stats=True)
    (5): ReLU(inplace=True)
  )
  (conv4): Sequential(
    (0): Conv2d(32, 32, kernel_size=(3, 3), stride=(1, 1), padding=(1, 1), groups=32, bias=False)
    (1): BatchNorm2d(32, eps=1e-05, momentum=0.1, affine=True, track_running_stats=True)
    (2): ReLU(inplace=True)
    (3): Conv2d(32, 32, kernel_size=(1, 1), stride=(1, 1), bias=False)
    (4): BatchNorm2d(32, eps=1e-05, momentum=0.1, affine=True, track_running_stats=True)
    (5): ReLU(inplace=True)
  )
  (conv5): Sequential(
    (0): Conv2d(32, 32, kernel_size=(3, 3), stride=(2, 2), padding=(1, 1), groups=32, bias=False)
    (1): BatchNorm2d(32, eps=1e-05, momentum=0.1, affine=True, track_running_stats=True)
    (2): ReLU(inplace=True)
    (3): Conv2d(32, 64, kernel_size=(1, 1), stride=(1, 1), bias=False)
    (4): BatchNorm2d(64, eps=1e-05, momentum=0.1, affine=True, track_running_stats=True)
    (5): ReLU(inplace=True)
  )
  (conv6): Sequential(
    (0): Conv2d(64, 64, kernel_size=(3, 3), stride=(1, 1), padding=(1, 1), groups=64, bias=False)
    (1): BatchNorm2d(64, eps=1e-05, momentum=0.1, affine=True, track_running_stats=True)
    (2): ReLU(inplace=True)
    (3): Conv2d(64, 64, kernel_size=(1, 1), stride=(1, 1), bias=False)
    (4): BatchNorm2d(64, eps=1e-05, momentum=0.1, affine=True, track_running_stats=True)
    (5): ReLU(inplace=True)
  )
  (conv7): Sequential(
    (0): Conv2d(64, 64, kernel_size=(3, 3), stride=(1, 1), padding=(1, 1), groups=64, bias=False)
    (1): BatchNorm2d(64, eps=1e-05, momentum=0.1, affine=True, track_running_stats=True)
    (2): ReLU(inplace=True)
    (3): Conv2d(64, 64, kernel_size=(1, 1), stride=(1, 1), bias=False)
    (4): BatchNorm2d(64, eps=1e-05, momentum=0.1, affine=True, track_running_stats=True)
    (5): ReLU(inplace=True)
  )
  (conv8): BasicRFB(
    (branch0): Sequential(
      (0): BasicConv(
        (conv): Conv2d(64, 8, kernel_size=(1, 1), stride=(1, 1), bias=False)
        (bn): BatchNorm2d(8, eps=1e-05, momentum=0.01, affine=True, track_running_stats=True)
      )
      (1): BasicConv(
        (conv): Conv2d(8, 16, kernel_size=(3, 3), stride=(1, 1), padding=(1, 1), bias=False)
        (bn): BatchNorm2d(16, eps=1e-05, momentum=0.01, affine=True, track_running_stats=True)
        (relu): ReLU(inplace=True)
      )
      (2): BasicConv(
        (conv): Conv2d(16, 16, kernel_size=(3, 3), stride=(1, 1), padding=(2, 2), dilation=(2, 2), bias=False)
        (bn): BatchNorm2d(16, eps=1e-05, momentum=0.01, affine=True, track_running_stats=True)
      )
    )
    (branch1): Sequential(
      (0): BasicConv(
        (conv): Conv2d(64, 8, kernel_size=(1, 1), stride=(1, 1), bias=False)
        (bn): BatchNorm2d(8, eps=1e-05, momentum=0.01, affine=True, track_running_stats=True)
      )
      (1): BasicConv(
        (conv): Conv2d(8, 16, kernel_size=(3, 3), stride=(1, 1), padding=(1, 1), bias=False)
        (bn): BatchNorm2d(16, eps=1e-05, momentum=0.01, affine=True, track_running_stats=True)
        (relu): ReLU(inplace=True)
      )
      (2): BasicConv(
        (conv): Conv2d(16, 16, kernel_size=(3, 3), stride=(1, 1), padding=(3, 3), dilation=(3, 3), bias=False)
        (bn): BatchNorm2d(16, eps=1e-05, momentum=0.01, affine=True, track_running_stats=True)
      )
    )
    (branch2): Sequential(
      (0): BasicConv(
        (conv): Conv2d(64, 8, kernel_size=(1, 1), stride=(1, 1), bias=False)
        (bn): BatchNorm2d(8, eps=1e-05, momentum=0.01, affine=True, track_running_stats=True)
      )
      (1): BasicConv(
        (conv): Conv2d(8, 12, kernel_size=(3, 3), stride=(1, 1), padding=(1, 1), bias=False)
        (bn): BatchNorm2d(12, eps=1e-05, momentum=0.01, affine=True, track_running_stats=True)
        (relu): ReLU(inplace=True)
      )
      (2): BasicConv(
        (conv): Conv2d(12, 16, kernel_size=(3, 3), stride=(1, 1), padding=(1, 1), bias=False)
        (bn): BatchNorm2d(16, eps=1e-05, momentum=0.01, affine=True, track_running_stats=True)
        (relu): ReLU(inplace=True)
      )
      (3): BasicConv(
        (conv): Conv2d(16, 16, kernel_size=(3, 3), stride=(1, 1), padding=(5, 5), dilation=(5, 5), bias=False)
        (bn): BatchNorm2d(16, eps=1e-05, momentum=0.01, affine=True, track_running_stats=True)
      )
    )
    (ConvLinear): BasicConv(
      (conv): Conv2d(48, 64, kernel_size=(1, 1), stride=(1, 1), bias=False)
      (bn): BatchNorm2d(64, eps=1e-05, momentum=0.01, affine=True, track_running_stats=True)
    )
    (shortcut): BasicConv(
      (conv): Conv2d(64, 64, kernel_size=(1, 1), stride=(1, 1), bias=False)
      (bn): BatchNorm2d(64, eps=1e-05, momentum=0.01, affine=True, track_running_stats=True)
    )
    (relu): ReLU()
  )
  (conv9): Sequential(
    (0): Conv2d(64, 64, kernel_size=(3, 3), stride=(2, 2), padding=(1, 1), groups=64, bias=False)
    (1): BatchNorm2d(64, eps=1e-05, momentum=0.1, affine=True, track_running_stats=True)
    (2): ReLU(inplace=True)
    (3): Conv2d(64, 128, kernel_size=(1, 1), stride=(1, 1), bias=False)
    (4): BatchNorm2d(128, eps=1e-05, momentum=0.1, affine=True, track_running_stats=True)
    (5): ReLU(inplace=True)
  )
  (conv10): Sequential(
    (0): Conv2d(128, 128, kernel_size=(3, 3), stride=(1, 1), padding=(1, 1), groups=128, bias=False)
    (1): BatchNorm2d(128, eps=1e-05, momentum=0.1, affine=True, track_running_stats=True)
    (2): ReLU(inplace=True)
    (3): Conv2d(128, 128, kernel_size=(1, 1), stride=(1, 1), bias=False)
    (4): BatchNorm2d(128, eps=1e-05, momentum=0.1, affine=True, track_running_stats=True)
    (5): ReLU(inplace=True)
  )
  (conv11): Sequential(
    (0): Conv2d(128, 128, kernel_size=(3, 3), stride=(1, 1), padding=(1, 1), groups=128, bias=False)
    (1): BatchNorm2d(128, eps=1e-05, momentum=0.1, affine=True, track_running_stats=True)
    (2): ReLU(inplace=True)
    (3): Conv2d(128, 128, kernel_size=(1, 1), stride=(1, 1), bias=False)
    (4): BatchNorm2d(128, eps=1e-05, momentum=0.1, affine=True, track_running_stats=True)
    (5): ReLU(inplace=True)
  )
  (conv12): Sequential(
    (0): Conv2d(128, 128, kernel_size=(3, 3), stride=(2, 2), padding=(1, 1), groups=128, bias=False)
    (1): BatchNorm2d(128, eps=1e-05, momentum=0.1, affine=True, track_running_stats=True)
    (2): ReLU(inplace=True)
    (3): Conv2d(128, 256, kernel_size=(1, 1), stride=(1, 1), bias=False)
    (4): BatchNorm2d(256, eps=1e-05, momentum=0.1, affine=True, track_running_stats=True)
    (5): ReLU(inplace=True)
  )
  (conv13): Sequential(
    (0): Conv2d(256, 256, kernel_size=(3, 3), stride=(1, 1), padding=(1, 1), groups=256, bias=False)
    (1): BatchNorm2d(256, eps=1e-05, momentum=0.1, affine=True, track_running_stats=True)
    (2): ReLU(inplace=True)
    (3): Conv2d(256, 256, kernel_size=(1, 1), stride=(1, 1), bias=False)
    (4): BatchNorm2d(256, eps=1e-05, momentum=0.1, affine=True, track_running_stats=True)
    (5): ReLU(inplace=True)
  )
  (conv14): Sequential(
    (0): Conv2d(256, 64, kernel_size=(1, 1), stride=(1, 1))
    (1): ReLU(inplace=True)
    (2): Sequential(
      (0): Conv2d(64, 64, kernel_size=(3, 3), stride=(2, 2), padding=(1, 1), groups=64)
      (1): ReLU(inplace=True)
      (2): Conv2d(64, 256, kernel_size=(1, 1), stride=(1, 1))
    )
    (3): ReLU(inplace=True)
  )
  (loc): Sequential(
    (0): Sequential(
      (0): Conv2d(64, 64, kernel_size=(3, 3), stride=(1, 1), padding=(1, 1), groups=64)
      (1): ReLU(inplace=True)
      (2): Conv2d(64, 12, kernel_size=(1, 1), stride=(1, 1))
    )
    (1): Sequential(
      (0): Conv2d(128, 128, kernel_size=(3, 3), stride=(1, 1), padding=(1, 1), groups=128)
      (1): ReLU(inplace=True)
      (2): Conv2d(128, 8, kernel_size=(1, 1), stride=(1, 1))
    )
    (2): Sequential(
      (0): Conv2d(256, 256, kernel_size=(3, 3), stride=(1, 1), padding=(1, 1), groups=256)
      (1): ReLU(inplace=True)
      (2): Conv2d(256, 8, kernel_size=(1, 1), stride=(1, 1))
    )
    (3): Conv2d(256, 12, kernel_size=(3, 3), stride=(1, 1), padding=(1, 1))
  )
  (conf): Sequential(
    (0): Sequential(
      (0): Conv2d(64, 64, kernel_size=(3, 3), stride=(1, 1), padding=(1, 1), groups=64)
      (1): ReLU(inplace=True)
      (2): Conv2d(64, 6, kernel_size=(1, 1), stride=(1, 1))
    )
    (1): Sequential(
      (0): Conv2d(128, 128, kernel_size=(3, 3), stride=(1, 1), padding=(1, 1), groups=128)
      (1): ReLU(inplace=True)
      (2): Conv2d(128, 4, kernel_size=(1, 1), stride=(1, 1))
    )
    (2): Sequential(
      (0): Conv2d(256, 256, kernel_size=(3, 3), stride=(1, 1), padding=(1, 1), groups=256)
      (1): ReLU(inplace=True)
      (2): Conv2d(256, 4, kernel_size=(1, 1), stride=(1, 1))
    )
    (3): Conv2d(256, 6, kernel_size=(3, 3), stride=(1, 1), padding=(1, 1))
  )
  (landm): Sequential(
    (0): Sequential(
      (0): Conv2d(64, 64, kernel_size=(3, 3), stride=(1, 1), padding=(1, 1), groups=64)
      (1): ReLU(inplace=True)
      (2): Conv2d(64, 30, kernel_size=(1, 1), stride=(1, 1))
    )
    (1): Sequential(
      (0): Conv2d(128, 128, kernel_size=(3, 3), stride=(1, 1), padding=(1, 1), groups=128)
      (1): ReLU(inplace=True)
      (2): Conv2d(128, 20, kernel_size=(1, 1), stride=(1, 1))
    )
    (2): Sequential(
      (0): Conv2d(256, 256, kernel_size=(3, 3), stride=(1, 1), padding=(1, 1), groups=256)
      (1): ReLU(inplace=True)
      (2): Conv2d(256, 20, kernel_size=(1, 1), stride=(1, 1))
    )
    (3): Conv2d(256, 30, kernel_size=(3, 3), stride=(1, 1), padding=(1, 1))
  )
)
Loading Dataset...
Epoch:1/250 || Epochiter: 1/403 || Iter: 1/100750 || Loc: 4.4174 Cla: 8.6187 Landm: 19.7309 || LR: 0.00100000 || Batchtime: 1.8878 s || ETA: 2 days, 4:49:57
Epoch:1/250 || Epochiter: 2/403 || Iter: 2/100750 || Loc: 4.5356 Cla: 8.3364 Landm: 20.8742 || LR: 0.00100000 || Batchtime: 0.2183 s || ETA: 6:06:37
Epoch:1/250 || Epochiter: 3/403 || Iter: 3/100750 || Loc: 4.3149 Cla: 8.3474 Landm: 19.4712 || LR: 0.00100000 || Batchtime: 0.1178 s || ETA: 3:17:50
…
